flask-app-1/posture_classifier.pth (torch, 21494 bytes, 5 tensors)

fc.0.weight f4 [64, 39]
000000 c4 77 26 3d 90 03 71 3c c8 aa 0a 3e dc ae 08 3d
       0.04064156 0.014710322 0.1354171 0.033369884
000010 b0 50 fc bc 41 71 86 bd a8 b2 de 3c 28 af e0 bc
       -0.030800194 -0.0656457 0.0271848 -0.027427271
000020 d0 f3 dd bd 68 84 eb 3d 9c 94 d3 3d 6a cd 14 3e
       -0.10837519 0.11499864 0.10331079 0.14531484
000030 08 ab 17 3d 7c 95 cf 3d d3 ca a9 bd 0c e1 05 3e
       0.037028342 0.10135934 -0.08290639 0.1307413
000040 64 f2 c0 bd ec 15 14 3e 62 18 08 3e 98 c5 dd 3c
       -0.09421232 0.14461488 0.13290551 0.02707176
000050 e0 c2 ef 3c 88 2b f5 3d bc b8 db 3d 3c e3 69 3d
       0.029267728 0.119711936 0.10728595 0.057101473
000060 98 f5 00 3e bc 0a 22 bd e0 89 b6 3d c0 e5 96 bc
       0.12593687 -0.03956102 0.08913016 -0.0184201
000070 9e 5b 15 3e 12 dc 9f 3d c4 2e d2 3d dc 7e d2 3d
       0.1458573 0.07805647 0.10262826 0.10278103
000080 80 f3 4d 3b 08 90 bc bc 2e 57 1f 3e 7c 32 17 3e
       0.0031425655 -0.023017898 0.155606 0.14765352
000090 00 ad de ba 48 67 bb 3d 76 8d b4 3d 48 d5 99 3c
       -0.0016988814 0.09150559 0.08816044 0.018778458
0000a0 8e 3c ad 3d 70 c9 a9 3d 30 35 4a 3d ac 40 7a 3d
       0.084588155 0.08290374 0.04936713 0.061096832
0000b0 16 ac 58 bd 74 05 4a 3d 34 eb 1f 3d f8 de e3 3d
       -0.05289849 0.049321607 0.039042667 0.11126512
0000c0 ff b0 15 be 88 26 e8 bd 58 82 ba 3c 37 d6 88 bd
       -0.146183 -0.11335474 0.02276723 -0.06681483
0000d0 3c 8b e2 3d 40 bf 88 3b 05 46 8a bd 60 90 76 3d
       0.11061713 0.0041731894 -0.067516364 0.06019628
0000e0 b8 72 0c be be 84 f4 bd 96 9e c7 bd 5c 7e cc 3d
       -0.13715637 -0.11939381 -0.09747045 0.09985039
0000f0 8c 1b 3e 3d 3e 7d 80 3d 52 ec 06 3e c6 63 10 3e
       0.04641299 0.06273888 0.13176087 0.1410056
000100 c8 27 8c bc a8 ce 0e 3d ab 04 80 bd 8c e1 74 bd
       -0.017108813 0.03486505 -0.0625089 -0.05978541
000110 72 08 0d be ca 4c 0f 3e 8a d9 d0 bd d8 ec ff bd
       -0.13772753 0.13994136 -0.10197742 -0.12496346
000120 ac ca 11 bd d8 92 22 3e a7 6e be bd a4 b1 d2 3d
       -0.035593674 0.15876329 -0.09298449 0.102877885
000130 68 ee ce 3c a8 02 e8 3d 68 e2 0a 3e 20 0e 3f bd
       0.025260165 0.11328632 0.1356293 -0.04664433
000140 80 41 f1 3d 00 cd c2 3c 3e c5 53 bd ea 78 02 3e
       0.11780071 0.023779392 -0.051701777 0.12741438
000150 91 86 a0 bd b0 f0 7c 3d 30 92 72 3c a6 4a c9 bd
       -0.078381665 0.061752975 0.014805362 -0.09828691
000160 ce 8c fd bd f0 c4 80 bc 00 9e d9 3a c4 c0 40 3d
       -0.12380372 -0.015718907 0.0016602874 0.047058836
000170 cc be 28 3d b8 ae f9 3d 28 72 d7 bd d8 ce a7 bc
       0.041197583 0.12191528 -0.105198205 -0.020484373
000180 fe dd 88 3d 88 42 d6 bc 28 dd 10 3e ec d2 7d 3d
       0.06682967 -0.026154771 0.14146864 0.06196873
000190 90 5c e9 bc 02 58 1d 3e 3c c0 29 bd 00 cf 66 ba
       -0.02848652 0.15365604 -0.041443095 -0.0008804649
0001a0 90 3c d4 3d a4 7d 24 3d c0 a4 07 3b 78 0d ee bd
       0.10363114 0.040158883 0.0020697564 -0.11623663
0001b0 50 a1 30 3d 74 dc d4 3d 78 07 81 3c e8 f1 84 3c
       0.04312259 0.103936106 0.015750632 0.016228631
0001c0 5e a0 20 3e f0 53 c3 3c 48 83 c3 3d aa 5b 8c 3d
       0.15686175 0.023843735 0.09546524 0.06853421
0001d0 28 b5 a4 3c 42 f3 ca 3d a1 99 2b bd 37 6c 2f 3d
       0.020105913 0.09909679 -0.04189456 0.04282781
0001e0 ce 57 ce 3c 04 ad 3a bd 23 d5 aa bd 30 df ce 3d
       0.025188353 -0.045575157 -0.08341434 0.101011634
0001f0 45 74 1a 3d 7a 9f 99 3d d4 67 3c 3d cd 4e 27 bd
       0.03770854 0.07501121 0.045997456 -0.040846635
000200 4b 4f 97 3d 53 40 1b bc 8d 9b 58 bd 93 67 7f bc
       0.07388171 -0.009475785 -0.05288272 -0.015588659
000210 b6 a8 16 3e f8 33 18 be ac e6 99 3d da 09 a9 3b
       0.14712796 -0.14863575 0.075147 0.005158645
000220 7c e0 b2 bd 35 9c 89 bc ba ff fd 3d 58 35 c9 3c
       -0.08734223 -0.016798118 0.124022916 0.02456157
000230 94 0f 9d 3d 9a 53 1b 3e 0a 6a 10 3d 62 69 02 3e
       0.07668987 0.1516861 0.035257377 0.12735513
000240 75 31 89 bd 1d 24 56 3d 7b 88 a6 3d d6 88 07 be
       -0.06698886 0.052280534 0.081315 -0.13235793
000250 07 36 f3 bc b8 11 f6 3d 80 5b 5d 3b 90 b8 d8 3c
       -0.029688848 0.12015098 0.0033776462 0.026455194
000260 e8 e0 b4 3d 05 7f 42 3c 87 4c 0d 3e 80 48 0f 3e
       0.0883196 0.011871104 0.13798724 0.139925
000270 b4 4b 1f 3e a0 6c 5d 3c 40 ce dc 3b aa 89 01 3e
       0.15556222 0.013514668 0.006738454 0.12650171
000280 00 60 be b9 f8 db 85 3c 28 1b 81 3c 38 92 5f 3d
       -0.0003631115 0.01634024 0.01576002 0.054582804
000290 07 a2 83 bd d8 81 c7 3c 30 59 03 bd e8 3a 85 bc
       -0.06427389 0.024353907 -0.032067478 -0.01626344
0002a0 c8 1c d3 3c 50 c7 d4 bc c0 9e 8f 3b 34 05 66 3d
       0.02577056 -0.025973946 0.004382938 0.056157306
0002b0 40 9a 13 3c e0 33 56 bc e2 f3 04 3e 6e aa 3b bd
       0.009008944 -0.013073891 0.12983659 -0.04581683
0002c0 ee 12 91 3d 64 ef 18 3d 1c 2a 27 bd 69 14 a3 bd
       0.07083689 0.037337676 -0.040811643 -0.07962877
0002d0 a0 75 c1 bc 1c d3 ef 3d 6c d9 ac 3d 36 a9 ae bd
       -0.023615658 0.11710188 0.084399074 -0.08528368
0002e0 fa 53 fa bd a0 01 ef 3b 00 44 fa 3c 0e cc 84 bd
       -0.122230485 0.007293895 0.030550003 -0.06484233
0002f0 74 b4 1d 3e 9c 55 0b be 5a b1 aa 3d 30 88 50 3d
       0.15400869 -0.13606876 0.083346084 0.05091113
000300 04 df bd 3d 92 b8 07 be 8c 9d 11 3d 06 af 3e bd
       0.092710525 -0.13254002 0.03555064 -0.046553634
000310 c8 92 d4 3d 9c 7e e6 3d 55 45 b4 bd d0 42 58 bc
       0.10379559 0.112546176 -0.088022865 -0.013199523
000320 14 2a bd 3d 1a 2c 97 bd e8 de f9 3d 2e d5 17 3e
       0.092365414 -0.073814586 0.12200719 0.14827415
000330 20 31 b6 bc 70 31 17 3e 2c 35 e3 3d fc ae 1e 3e
       -0.022240222 0.14764953 0.11094126 0.15496439
000340 82 2a 1b bd ac 93 08 3e 40 10 3d bd 57 77 a1 bd
       -0.037882335 0.13337582 -0.046158075 -0.078840904
000350 c8 0c 9e 3d de 90 f3 bd 39 fb 9c bd 12 22 e3 bd
       0.077172816 -0.118928656 -0.076651044 -0.11090483
000360 c2 36 0c 3e 80 1b b5 3b 50 ad 20 3c 90 f9 82 bc
       0.13692763 0.00552696 0.009806946 -0.015988141
000370 57 1a a0 bd 28 88 ca 3d 90 9e 12 be 20 6f 40 bc
       -0.07817524 0.09889251 -0.143183 -0.011745244
000380 5c 62 18 be 4c ff 33 3d 54 78 8a bd 3c 79 b0 3d
       -0.14881271 0.043944642 -0.06761232 0.086168736
000390 66 c9 12 3e 28 2d ae 3d 10 6d e4 3d 60 b5 dc 3d
       0.1433464 0.085047066 0.111536145 0.10776782
0003a0 b4 80 06 3e 70 69 6d bd 1b 92 f9 3d 69 b9 bd bc
       0.13135034 -0.05796188 0.121860705 -0.0231597
0003b0 61 06 14 3e d9 76 d4 3d 1d d4 78 3d 98 9b b6 bc
       0.14455558 0.10374231 0.060749162 -0.02229099
0003c0 9d 7d 17 be d9 53 6f bd aa d8 ce 3d 42 54 94 bd
       -0.14794011 -0.058429573 0.10099919 -0.072426334
0003d0 9c 21 8c 3d 23 c6 60 3c 6e 8a 7a bc 0f 4a bd 3c
       0.06842348 0.0137191145 -0.015291793 0.023106603
0003e0 0e 51 0b 3d 22 f4 63 bd 90 4a 9f 3d 06 a3 15 3e
       0.034012847 -0.055652745 0.077778935 0.1461297
0003f0 78 49 f8 bd 31 87 0d 3d 05 80 ae bd ce 43 18 be
       -0.12123388 0.034552757 -0.085205115 -0.14869615

fc.0.bias f4 [64]
000000 54 66 f1 3d 26 b6 d6 bd 02 c6 a6 bd 55 ba cc 3d
       0.11787096 -0.10483961 -0.08143236 0.099964775
000010 40 59 27 3d 40 71 8c 3d 9d ee c4 3d c6 b0 d6 bd
       0.0408566 0.06857538 0.09615824 -0.104829356
000020 37 cf 89 bd 8d 61 64 bd 7f 40 8b 3d 87 74 3d 3e
       -0.06728976 -0.055757094 0.06799411 0.18501483
000030 49 f1 87 bb 86 65 15 bd 78 13 f9 3c f3 89 a5 3d
       -0.0041486365 -0.036473773 0.030404791 0.08082952
000040 a6 40 9c 3d 60 e8 61 bd b9 cd a7 bb d7 e6 94 bd
       0.07629518 -0.05515325 -0.0051209596 -0.07270592
000050 1a 46 a0 3d 1d 30 2f 3e c5 b0 02 be 0e 4f a0 3d
       0.07825871 0.17108198 -0.12762745 0.078275785
000060 54 0a c4 bd 5a 0f 63 3c b9 e6 d3 bd f6 75 8d bc
       -0.095722824 0.013858641 -0.10346741 -0.017268162
000070 32 32 37 be b9 b5 f4 3d 47 8b 14 bd e7 c6 d7 bd
       -0.17890242 0.11948723 -0.036265638 -0.105359845
000080 41 56 a3 bc c0 6e 93 3d b4 79 03 3d ac 3e 23 be
       -0.01993859 0.07198858 0.032098487 -0.15941876
000090 d4 9e ce bd cf 9a 0b bd 41 b2 54 3d 57 e3 ff 3d
       -0.10088888 -0.034083184 0.05192781 0.124945335
0000a0 b9 7b ef bd 19 9a 15 be 00 66 42 3b ea d8 09 be
       -0.1169352 -0.14609565 0.0029662848 -0.13461652
0000b0 07 a2 bb bd e2 4e f8 bd 80 15 0f 3e 47 b7 0f be
       -0.09161764 -0.12124421 0.13973045 -0.14034759
0000c0 86 d2 ad 3d 82 da 0d 3e 30 41 c1 3d cd 91 f8 3d
       0.0848742 0.13852885 0.09436262 0.12137184
0000d0 15 59 d1 bd f4 09 8d 3d c3 17 3f 3e 32 7a 0b be
       -0.10222069 0.06886664 0.18661408 -0.13620833
0000e0 3f 6e 35 3e 7a 7b 08 3d 2a db 1d be 63 92 ab 3d
       0.17717837 0.03332088 -0.15415636 0.083775304
0000f0 ca 00 aa bd 34 fd f0 3d 90 bf 0a 3b 55 f1 cd 3c
       -0.08300932 0.11767045 0.002117131 0.02513949

fc.2.weight f4 [32, 64]
000000 48 1d 64 3d f8 39 ab 3c 28 df ef bc 98 fd f5 bc
       0.055691987 0.020901665 -0.029281214 -0.03002815
000010 5c 2b 21 bd a8 94 46 bd 50 47 ec bd 8c f2 6f 3d
       -0.03934799 -0.048481613 -0.11537039 0.05858092
000020 98 28 53 3d 33 5f 04 be 28 4a ce bd ee 7b aa bd
       0.051552385 -0.1292694 -0.10072738 -0.08324419
000030 c0 28 fc bc 98 33 52 3d 40 ae 26 3c ca f7 02 be
       -0.03078115 0.051318735 0.01017338 -0.12789837
000040 88 9e f1 3c c2 25 89 3d 80 98 5e 3d 02 5d a1 bd
       0.029494539 0.06696655 0.054344654 -0.07879068
000050 20 8f 27 bc 8b 70 dc ba b0 53 cb bd 0e 5b dc 3d
       -0.010226995 -0.0016818208 -0.099280715 0.10759555
000060 89 50 87 bc ea 5a da 3d 90 83 54 bd 6e c3 ca 3d
       -0.016517894 0.10661872 -0.05188328 0.099005565
000070 78 ba 66 bd a8 75 a9 bd c6 19 5d bd fb 17 d6 3c
       -0.056330174 -0.08274394 -0.053979658 0.026134482
000080 8b 65 81 bd 9c 26 dd 3d b5 fc aa 3d d6 68 ed bd
       -0.06318196 0.1079838 0.08348981 -0.115922615
000090 32 3c fa bd a7 2b 30 ba a4 7c 03 be 88 05 89 3d
       -0.122185126 -0.0006720372 -0.12840515 0.06690508
0000a0 5c 4b aa 3d 5e 94 a3 bd 5a 95 96 3d 3c d7 b0 bd
       0.08315155 -0.07987283 0.07352705 -0.08634803
0000b0 56 94 e4 bd 84 d3 d8 bd 18 e6 ac bd 8c fd b4 bd
       -0.11161105 -0.105872184 -0.084423244 -0.08837423
0000c0 78 a5 54 3d cf 73 f1 bd 94 b4 13 3d 4a 10 a7 3c
       0.051915616 -0.11789667 0.036060885 0.02039351
0000d0 fe f0 7d bd 64 8b 7a 3d 1e 07 6e 3c b8 95 62 3d
       -0.061997406 0.06116809 0.014528064 0.055318564
0000e0 f8 61 e1 bd 3e 8b 98 bd a4 eb 5d bd 7b e1 ff bc
       -0.11005014 -0.07448433 -0.054179803 -0.031235447
0000f0 84 0d 89 3d 90 24 ab bc 62 8b 82 3d f6 18 b7 bd
       0.06692031 -0.020891458 0.063742414 -0.08940308
000100 58 63 ed 3d b6 39 90 3d 60 0b a3 3d fa 42 a8 3d
       0.11591214 0.070422575 0.07961154 0.082159
000110 30 8e e4 bd 82 df fe 3d a6 73 f9 3d a8 a1 68 bd
       -0.111599326 0.124449745 0.12180261 -0.056794792
000120 1e 96 e6 bd 20 a5 4c bc 80 3c 97 bc 8e 7f ec 3d
       -0.11259101 -0.012490541 -0.018461466 0.115477666
000130 9e 18 a3 bd 02 14 ad bd c0 fd ee bd 1c 6e ab bd
       -0.0796368 -0.08451082 -0.11669493 -0.08370611
000140 ec 5b d3 bd 7e d1 e9 bd 00 a7 4d 3c 88 4e 16 bd
       -0.10320267 -0.114169106 0.012552023 -0.036695987
000150 7c 22 a9 bd 6e e4 de bd f0 59 82 bc c8 5e e0 3d
       -0.082585305 -0.10883413 -0.015912026 0.10955578
000160 60 69 e9 bd 1e d5 c0 3d c0 17 2c 3c a0 2f f0 3c
       -0.11397052 0.09415649 0.010503709 0.029319584
000170 30 a8 88 bd bc 55 85 bd 14 fd d6 3d c0 1f bc 3b
       -0.06672704 -0.06510493 0.104974896 0.0057410896
000180 fe a9 f4 3d 82 04 e8 3d 3c dc 5e bd 00 1c 94 3d
       0.11946486 0.11328985 -0.05440925 0.07231903
000190 a4 b9 7b bd 60 4d b8 bc 3e 26 88 3d 00 9e 45 3a
       -0.061456338 -0.022497833 0.06647919 0.00075384974
0001a0 68 a8 73 bd 76 39 e3 bd 16 b6 da bd 00 b4 33 bc
       -0.059486777 -0.11094944 -0.106792614 -0.010968208
0001b0 4c a0 f4 3d 30 72 f5 bc 0e b6 99 3d 78 6d cf bc
       0.11944637 -0.029961675 0.07505427 -0.025320753
0001c0 50 d3 06 3c 60 e0 e3 bd ae 5c a7 3d 40 4b 2e bb
       0.008229092 -0.111267805 0.08171974 -0.0026595145
0001d0 88 3c 9a bc 18 46 ff 3d 00 c1 b2 bb 44 eb e0 3d
       -0.018827692 0.12464541 -0.0054551363 0.10982373
0001e0 48 06 fd 3c 7a 14 f3 bd 78 3c 3a bd 94 ab 1b bd
       0.030886784 -0.1186914 -0.045467824 -0.038005427
0001f0 4c 13 61 3d f0 b1 e6 3d 00 0a a4 ba 80 ad d7 bb
       0.054950044 0.11264408 -0.0012515187 -0.006581962
000200 4e 53 d1 3d 82 44 ef 3d 80 3b 80 3d 4f 36 3d 3d
       0.10220967 0.11682989 0.06261349 0.04619437
000210 54 37 3e 3d 5c b7 c3 bd 40 1d 16 bb b4 6e ff 3d
       0.046439484 -0.095564574 -0.0022905618 0.12472287
000220 a6 a2 b5 3d 5a fa ab bd 97 88 62 3e d0 96 28 3e
       0.08868913 -0.0839736 0.22122417 0.1646378
000230 3f 95 ac 3d 38 6f d7 bc 88 09 c8 bd 54 e6 49 3d
       0.08426904 -0.02629815 -0.09767443 0.049291924
000240 c4 5a d5 bd 93 94 0b 3e bb dc 45 bd 65 9c 2e be
       -0.10417703 0.13630895 -0.048306208 -0.17051847
000250 c0 7a 16 bb 28 90 00 3a f0 94 7d 3d 0d 0d 4b 3e
       -0.0022961348 0.00049042935 0.061909616 0.19829197
000260 98 a6 ce ba 60 3c 3a 3d 40 bd 45 bb 22 56 cf 3d
       -0.0015766202 0.045467734 -0.0030172616 0.101238504
000270 26 22 0d bd 85 4c e2 3d 65 b5 31 3e 82 55 5c be
       -0.034456395 0.11049751 0.17354353 -0.21516994
000280 cb 69 aa bd c9 1d 82 bd 9f 5d 05 bd c4 10 81 bd
       -0.0832096 -0.06353337 -0.032559987 -0.06302026
000290 23 a0 08 3d b4 d7 8e 3d 38 ea ab be bd 24 d2 3d
       0.033355843 0.06974736 -0.33577132 0.102609135
0002a0 00 b4 23 b9 1a 0d ae bd da 11 b6 3d c6 20 ee 3d
       -0.00015611947 -0.08498593 0.08890124 0.11627345
0002b0 b6 11 5c bd 7e df dc bd f4 f3 66 bd 7c 53 5f 3d
       -0.053727828 -0.10784815 -0.056384996 0.054522976
0002c0 20 0d 90 3d f1 6a c1 bd 0a 6a b4 3d 27 2b 54 3a
       0.070337534 -0.094442256 0.08809288 0.00080935884
0002d0 05 59 12 be 14 6b a4 bd 82 ee a8 3d 28 24 6d bd
       -0.14291771 -0.08028236 0.08248617 -0.05789581
0002e0 45 11 c4 3d 77 ce e1 bc 4e 14 dc bd 71 c0 3e 3e
       0.095736064 -0.02756427 -0.1074606 0.18628098
0002f0 cc 63 4f bd 72 56 e2 be 2d a5 8e bd 33 1e db 3d
       -0.050632283 -0.44206578 -0.069650985 0.106991194
000300 2c 16 c3 bd d8 22 82 3d 14 59 10 bd 01 a4 2d bc
       -0.09525713 0.06354302 -0.0352412 -0.010598184
000310 ea 9d 87 3d 28 22 8a 3d 56 02 c7 bd 48 36 fe bc
       0.066219166 0.06744796 -0.097172424 -0.031031743
000320 96 2c 89 3d 33 26 2a 3e 27 f3 03 bd 09 dd b4 bc
       0.06697957 0.16616134 -0.03221431 -0.022078054
000330 f9 f6 ac bd 20 5e e6 bb c8 d8 ec 3c 3d 61 7e be
       -0.08445544 -0.0070302635 0.028911963 -0.24841781
000340 90 12 5d bd 08 f0 a2 3d b1 af 83 3e 00 55 0b 3e
       -0.05397278 0.079559386 0.2571998 0.13606644
000350 d8 4b 1b 3d fc 1c 26 be 8e 66 9f bd 59 41 7f 3d
       0.037914127 -0.16221994 -0.07783233 0.06231818
000360 eb 65 0b 3e 0c 85 1a be 80 61 ca bc ae 14 c9 3d
       0.13613097 -0.15089816 -0.024704695 0.098183975
000370 c7 ea 3d 3e 80 ad d7 3c f7 d9 fe 3a ff 62 93 3e
       0.18546592 0.026327848 0.0019443621 0.28786466
000380 19 c3 9e 3d 8d 0d fa 3d 55 5c 43 3e 11 d7 1f 3e
       0.07752056 0.12209616 0.1907819 0.15609385
000390 3b 8b 37 3e 93 32 e2 3d 02 1d 6f 3e 5d 9d 95 bd
       0.17924206 0.110448025 0.2335091 -0.07305405
0003a0 58 08 9d bc 7c e9 60 3d ac 43 9a bd 18 f6 0b 3d
       -0.019169018 0.054910168 -0.07532439 0.03417024
0003b0 76 ad e2 3d 98 1b 8f bd 62 93 89 bd e8 c7 d6 3d
       0.11068241 -0.06987685 -0.06717564 0.10487348
0003c0 d4 f1 17 3d 72 89 37 3d 38 b0 aa bd 80 99 98 3c
       0.03709586 0.044808812 -0.08334392 0.018627882
0003d0 a9 14 70 3e 50 2b ef bc 97 ad 0c 3c 0c b0 4f bd
       0.23445381 -0.029195458 0.008586309 -0.050705
0003e0 5a fb 5e be 95 b0 86 3e 98 b6 ed 3c c4 ae e6 bd
       -0.2177557 0.26306596 0.029017732 -0.11263803
0003f0 80 23 46 bc c9 da aa 3e ce 14 15 3e d3 52 3c be
       -0.012093425 0.33370045 0.14558718 -0.1839097

fc.2.bias f4 [32]
000000 17 50 21 bd 80 dc ea 3a d4 21 31 3e c0 30 fb 3d
       -0.03938302 0.0017918497 0.1729806 0.12265158
000010 d3 ac 16 3c 82 59 5e 3d da 06 35 3d 39 c3 29 3e
       0.009196478 0.05428458 0.044195987 0.16578378
000020 3a 29 91 3d fd 1d 83 bd 72 6e cf 3d 58 c2 05 bd
       0.070879415 -0.06402204 0.10128488 -0.032656044
000030 89 00 b9 3d 90 58 ec 3d 39 84 4f 3d 3a 4e 3f 3e
       0.09033305 0.115403295 0.050663207 0.18682185
000040 08 36 d0 bd 6e 2c b0 bd 53 ce 84 3c 43 44 15 3e
       -0.10166556 -0.08602224 0.016211664 0.14576821
000050 3c 08 20 3d c5 8f 3d 3e 6e b7 a7 3c b7 b1 02 3b
       0.039070353 0.18511875 0.020473208 0.0019942352
000060 e0 d6 c2 bd 0e ee 96 3d 46 21 df 3d a2 62 cb 3c
       -0.095136404 0.07369624 0.10895018 0.024827305
000070 f0 82 de 3d 9a 3a f8 bd 80 30 61 bb 8e f6 fc bd
       0.10864818 -0.12120552 -0.0034361184 -0.12351714

fc.4.weight f4 [1, 32]
000000 20 0e 29 be e8 fb 07 be 62 60 72 3e e9 1a a4 be
       -0.16509295 -0.13279688 0.2366958 -0.3205178
000010 fa 6d 64 bd e0 b2 2a 3e 9f f4 5f bd 0e ea 1d 3e
       -0.055768944 0.16669798 -0.05467665 0.15421316
000020 5d 04 50 3e 8a 7e 6e 3e ba 2c 89 3e 36 89 5e be
       0.20314164 0.23290458 0.26791936 -0.2173203
000030 a4 78 61 be 59 18 37 be ef 0b 6c 3e 82 5b 2c 3e
       -0.22018677 -0.17880382 0.23051427 0.16831782
000040 96 d2 c4 bc 4c cd 5d 3d 56 cd 87 3e 8f cf 82 3e
       -0.024026196 0.054150864 0.26523846 0.2554898
000050 73 62 95 be 9b e8 2f 3e 4c a6 11 be 53 9e 09 be
       -0.29176673 0.17178576 -0.14223593 -0.13439302
000060 6a ac 8e be 67 27 a2 be 79 81 22 be 99 91 9d 3e
       -0.27865916 -0.31670687 -0.15869702 0.30775145
000070 32 fe a9 3e 7b a1 9d bd 91 f1 33 3e 07 4a 1f 3e
       0.33201748 -0.076968156 0.17572619 0.15555583
